checkpoint.pth (torch, 229227 bytes, 12 tensors)

conv1.weight f4 [6, 1, 3, 3]
000000 28 6f be be d6 ce ea be 12 80 ac be f7 b0 80 bd
       -0.3719418 -0.45860928 -0.3369146 -0.06283753
000010 72 38 b0 be a8 ac 38 bd 0f fa 4e 3c 2e c3 d4 be
       -0.34418064 -0.045086533 0.012632861 -0.4155516
000020 34 bd 19 be 60 e7 2b bf be ad ac bd 35 92 fb 3e
       -0.15013582 -0.67149925 -0.08431576 0.49134985
000030 95 13 bf 3e c3 65 b9 3e 34 56 26 3e 28 4f 8e bd
       0.37319627 0.3621045 0.16243821 -0.069486916
000040 b9 9e 8a 3d 8f 08 1c 3e fd b2 e0 3e 62 cf af 3e
       0.06768555 0.1523764 0.43886557 0.34337908
000050 9a b3 85 3d c5 af 02 3f 9a c9 78 3e cb 21 6e be
       0.06528397 0.51049453 0.24295655 -0.23255078
000060 3f 66 cd be e3 0e e2 3d e0 f9 50 bc 89 6c 1c be
       -0.4011707 0.11037996 -0.012754887 -0.15275778
000070 40 fb e6 3d 46 7b 05 3d 2d e3 69 bd b2 ae 0f be
       0.11278391 0.032588266 -0.057101417 -0.14031485
000080 2c 43 85 bd 9d bb 1a 3e b3 62 80 bd eb 61 84 3d
       -0.06506953 0.15110631 -0.062688254 0.06463989
000090 ba cf 69 3f 7d f0 9f be 57 ad 56 3d 1f 92 80 3f
       0.9133259 -0.31238165 0.052411404 1.0044593
0000a0 2a 7f 71 be 69 05 94 bf b2 e8 5f 3f f6 4b 07 bf
       -0.23583665 -1.1564151 0.8746444 -0.5285028
0000b0 a9 ee 0c bf c5 24 b6 3d 08 5f 88 3e 32 15 b7 3e
       -0.55051666 0.08893732 0.26635003 0.35758358
0000c0 f9 96 98 3d 45 c7 9d bd 21 3c 87 3d 8e a6 8b 3e
       0.07450671 -0.07704023 0.066032656 0.2727551
0000d0 ce 93 69 bd 3e 77 04 3f
       -0.057025723 0.5174445

conv1.bias f4 [6]
000000 55 fd 04 bf be 76 59 3e 0f 28 16 3e 2d b2 b2 be
       -0.51949054 0.21236703 0.14663719 -0.34901562
000010 b1 58 98 be fd 3f 53 bf
       -0.29755166 -0.82519513

conv2.weight f4 [6, 6, 3, 3]
000000 88 47 0b 3e 25 ce df 3e 09 da f5 3e d8 c2 01 be
       0.13601506 0.43711963 0.4801791 -0.12671983
000010 50 64 67 3e cc 28 a4 3e 33 11 f3 bd 92 cb 29 be
       0.2259686 0.32062376 -0.11868515 -0.16581562
000020 1c 69 e7 bd c1 b1 4c be 39 9c f8 be 71 ef fe bd
       -0.11299345 -0.19989683 -0.48556688 -0.124480136
000030 d5 70 18 3e e3 a9 87 be 75 a6 20 3e 68 e5 cf 3e
       0.14886792 -0.264968 0.15688498 0.4060471
000040 c8 3b 29 3e 28 3f fd 3e 60 d5 dc 3d db 55 6b be
       0.16526711 0.49462247 0.107828856 -0.2298197
000050 42 d5 15 bf cd 94 b2 3d 62 6f 7a be b8 5b a0 be
       -0.5852853 0.08719788 -0.24456552 -0.31319976
000060 df e5 ec 3e 36 59 4f 3e 6f 38 90 bd b7 2a ae bd
       0.46269128 0.20248875 -0.07042014 -0.08504241
000070 be 74 f6 bc 82 09 91 3d 08 ae f8 3c 3f ba 65 3d
       -0.030084964 0.070818916 0.030356422 0.05608582
000080 bf f4 26 3b 38 ab b0 bd 09 57 9b bd 0a ca 56 3d
       0.002547547 -0.086264074 -0.0758496 0.052438773
000090 13 86 76 3e a5 15 d6 3e bb 7a 52 bd 56 95 8f 3d
       0.24074583 0.41813388 -0.051386576 0.070109054
0000a0 23 2c 59 3d 0e 4f ab be c4 7d 12 bd b4 70 b0 3b
       0.053020608 -0.3345875 -0.03576447 0.005384529
0000b0 a8 cd 8b be 2b 89 04 bd 53 54 be bd 5b 70 75 bd
       -0.2730534 -0.032357376 -0.09293427 -0.059921604
0000c0 91 26 b2 3d eb 33 de 3b 73 43 e7 3c 05 3f 64 3e
       0.08698762 0.0067810914 0.028230404 0.22289665
0000d0 26 54 15 bd c5 6e b6 3d 92 1b 10 be 6c fc 91 bc
       -0.036457203 0.08907846 -0.14073017 -0.01782056
0000e0 fa 3f 25 bd ae bf 94 bc 0c f9 3a be 1a 10 84 bc
       -0.040344216 -0.018157806 -0.18259066 -0.01612096
0000f0 f8 c0 bc 3c 67 51 a4 bd 9f 9f b4 3d ae 64 4e be
       0.023041233 -0.08023339 0.08819508 -0.20155594
000100 c6 f8 49 3e 4b 1d 9a 3e a9 b4 5c 3e b0 4f 76 3d
       0.19723806 0.30100474 0.21553291 0.06013459
000110 e9 47 02 be 25 98 b9 3e 1f 70 b8 3d c6 f2 67 3e
       -0.12722744 0.3624889 0.090057604 0.22651204
000120 7d cc 0c 3d 8a 11 24 be 2c ea 21 be d7 9c c1 3e
       0.034374703 -0.16022316 -0.15811986 0.37814972
000130 08 e8 3d 3e 76 e8 e0 3c a8 ad ec bd aa a8 83 3e
       0.18545544 0.027454596 -0.1155656 0.25714618
000140 47 c0 57 3e 0e f0 ea 3d cf 8e 6f bd 9d 2d e0 3d
       0.21069442 0.11471568 -0.058485802 0.109462
000150 e9 80 dd bd 3c 2f 1c bb e0 f8 42 bc bc b2 02 3d
       -0.10815603 -0.0023831865 -0.011900157 0.031908736
000160 32 76 79 3d 75 11 c6 3b 69 63 9c be 07 7f 09 be
       0.060903735 0.0060445615 -0.30544594 -0.13427363
000170 c1 29 6b be b6 d4 a8 3d 38 47 15 be 66 18 1a bd
       -0.22965147 0.082436964 -0.14577949 -0.037620924
000180 1c c7 8f bd 30 79 d2 bd 22 6e 27 be f1 8a 33 bd
       -0.07020399 -0.10277021 -0.16350606 -0.043833677
000190 e8 81 97 bc 06 bd 5c bd 08 b2 3c 3e 18 9d 86 3e
       -0.018494561 -0.053891204 0.18427289 0.26291728
0001a0 c3 41 6d 3e 1c bf 83 3d 9a 41 8b bc 47 42 b9 3e
       0.23169617 0.064329356 -0.016999055 0.36183378
0001b0 25 dc 24 3c d8 f6 a4 bd 86 43 e2 3d 29 6a 5c 3d
       0.010062252 -0.08054894 0.11048035 0.05381218
0001c0 59 bd eb bd e5 ab 29 be c4 6b bb bc 57 bf fc bd
       -0.115107246 -0.16569479 -0.022878535 -0.12341183
0001d0 e9 80 b4 bd e3 57 99 3e 4d 72 3e bc 8a 14 21 be
       -0.0881365 0.29949865 -0.011623931 -0.15730491
0001e0 02 e2 cd bc 43 75 09 be 42 dd 1f be 5d 3d 32 be
       -0.025132183 -0.13423638 -0.15611747 -0.1740622
0001f0 5d 4d 21 be 87 67 85 be d1 53 ce 3e 2a 4c 8b 3e
       -0.15752168 -0.26055548 0.40298322 0.27206546
000200 93 7d be 3d da f7 c3 3d 61 6f 2a 3e 71 ac f4 3d
       0.09301295 0.09568758 0.1664405 0.11946953
000210 5c 0e 86 3d bb ef cf 3d be 94 af 3d b2 11 7c 3d
       0.065457076 0.10153147 0.08573292 0.061540313
000220 12 83 81 bd b5 5d e7 3b 5d d3 f0 bd 03 6d d3 bc
       -0.06323828 0.0070607313 -0.11759064 -0.025808817
000230 ad f6 72 3c b0 91 00 be 61 52 5d 3d 02 7c e9 bd
       0.01482932 -0.12555575 0.05403364 -0.11400606
000240 75 e8 e0 bd 6b e3 c8 bd 58 7f 8f 3c b0 f8 ac bd
       -0.10981838 -0.098090015 0.017516777 -0.08445871
000250 36 47 d3 be f6 14 b8 be 36 86 55 3c f9 6c b3 bd
       -0.41265267 -0.35953492 0.013032487 -0.08761019
000260 38 2e 00 bf 50 d7 c4 3c af ef 20 3e b0 49 3d bb
       -0.50070524 0.02402845 0.15716432 -0.0028883033
000270 94 97 32 bd 24 d7 90 3c 3c 36 c2 3c 21 28 a3 be
       -0.043601587 0.017680712 0.023707502 -0.31866553
000280 5e 62 a0 bd 72 ef 08 be d5 97 a4 3e c6 fd 00 be
       -0.07831262 -0.13372591 0.3214709 -0.12596807
000290 9b ca 32 be 26 b8 26 3e 1a 0e e2 bd 01 9d a1 be
       -0.174601 0.16281185 -0.11037846 -0.31565097
0002a0 b2 d8 08 3e ce 14 bd bd b4 63 c3 bc 89 d1 16 be
       0.13363913 -0.09232484 -0.023851253 -0.14728369
0002b0 fb de 41 3e fb 0b 45 3f 6e b9 36 3e df 6e 66 bc
       0.18932717 0.76971406 0.17844173 -0.01406452
0002c0 88 04 9e 3e 35 c9 0d be 49 63 1b be 7e cc a1 3d
       0.30862832 -0.13846286 -0.15174593 0.07900332
0002d0 23 31 22 bf b9 1e 68 3e 01 9f b1 3e b6 75 21 bf
       -0.63356227 0.2266797 0.34691623 -0.6307024
0002e0 b9 e3 85 3e 20 16 bf 3e 20 f5 3c bf 01 79 56 bd
       0.261503 0.37321568 -0.7381153 -0.052361492
0002f0 a8 19 6e 3e 1f fc fb bb 7d d9 dd bc 4a b3 ac 3d
       0.23251975 -0.0076899673 -0.027081246 0.08432634
000300 f5 55 a6 bd c4 be d4 3d cd 86 0f be 6e 97 e9 3d
       -0.08121864 0.10387948 -0.14016266 0.11405836
000310 7e fe b1 bb d8 07 f4 3d 90 53 8a be 64 93 9f be
       -0.005431949 0.119155586 -0.27016878 -0.31167138
000320 c3 3c 81 be 8d 10 8a be 18 ea f0 bd 37 6c b6 be
       -0.2524167 -0.26965752 -0.117634 -0.35629436
000330 e1 20 b3 be ec 6e 7e 3d 5b b8 5a be 39 34 17 be
       -0.34986022 0.062117502 -0.21359389 -0.14766015
000340 61 68 6b ba 76 eb c4 3e 78 97 11 3c 37 6a 15 bc
       -0.0008980092 0.38460892 0.008886211 -0.009119562
000350 9d fc a1 3e 65 8b 86 be e6 47 d3 bd 80 91 d3 3b
       0.3163804 -0.26278225 -0.10316448 0.006456554
000360 b4 9a c3 bd c4 bc e6 3c d0 5e dd 3c eb 92 18 be
       -0.09550992 0.028166182 0.02702275 -0.14899795
000370 1d d0 c5 bd f5 8a 39 3e 81 68 22 be 90 17 af bd
       -0.09658835 0.18119414 -0.15860178 -0.08549416
000380 e4 ae 28 3d dc f0 ab 3e a7 9a bf bd 2d 6d 9b be
       0.041182414 0.335822 -0.093556695 -0.30356732
000390 bf 55 d4 3e fa c7 7e be 7c a9 77 be 6e 2c 95 3e
       0.4147167 -0.24880973 -0.24185747 0.2913546
0003a0 99 b5 69 be 92 ac e0 3d d7 88 00 3f 9f 04 54 3e
       -0.2282318 0.10970415 0.502088 0.20704888
0003b0 8f b6 0a bf ea ac 93 3e 26 6a 61 bd bf d6 07 bf
       -0.5418481 0.2884286 -0.05503287 -0.5306205
0003c0 0a b4 fa 3e 14 62 a7 3d 8c 3f 0a bf 35 d7 27 bb
       0.48965484 0.08173004 -0.54003215 -0.002561045
0003d0 01 07 25 3d 64 3f 62 3d 4c 17 e3 bd 73 b7 cf 3d
       0.040289883 0.055236235 -0.11088428 0.10142412
0003e0 36 51 b1 bd e3 4c 50 3d 5e 1b 1a 3d c2 59 c3 bd
       -0.08658068 0.050854575 0.037623756 -0.09538604
0003f0 0e 5d 3a 3d e8 9a 56 3e 36 b2 04 3f 6e 44 04 be
       0.0454989 0.2095753 0.5183443 -0.12916729

conv2.bias f4 [6]
000000 fd 94 24 be ea ff b0 3e 86 bd 96 3e 57 6e c9 3c
       -0.1607246 0.34570247 0.2944147 0.024588747
000010 14 09 6a be f7 8d 4b be
       -0.22855026 -0.19878374

conv3.weight f4 [16, 6, 3, 3]
000000 b9 73 05 3f 6b 4b d3 3e ed bb a5 be 79 ff 4d be
       0.52129704 0.41268477 -0.32369938 -0.20116986
000010 91 c3 1e 3e 62 e4 4a 3c 37 fc 2b bf 96 36 bf be
       0.1550429 0.012383552 -0.67181724 -0.37346333
000020 99 ca bd 3d 10 51 63 bf cd a3 94 bf 58 4b d4 be
       0.09267158 -0.88795567 -1.1612488 -0.41463733
000030 59 e3 21 3f de 21 30 3e 83 ba b4 bd d2 25 4f 3f
       0.6323753 0.1720042 -0.08824637 0.80917084
000040 a0 39 48 3f b5 a2 a4 bd 51 e8 11 be 2e 15 b9 be
       0.7821293 -0.080388464 -0.14248778 -0.3614897
000050 ba 28 bd be 02 d9 7b 3c 3b 9c 49 be bb ee 3d be
       -0.36945134 0.015371563 -0.19688503 -0.185481
000060 63 d6 e0 3e 05 02 d0 3e c4 44 8d 3a ec 0d 2b bf
       0.43913564 0.4062654 0.001077794 -0.6681812
000070 0e 4c ab be cf c7 f4 3d 2b 6c bc bd 17 2f 19 bf
       -0.33456463 0.11952173 -0.09200319 -0.5983748
000080 b6 aa 26 bd b9 8b b2 3e 8a 64 63 be 3c 7b 3b be
       -0.040690146 0.34872225 -0.22206321 -0.18308729
000090 e2 3e 69 3f 9a 02 a9 bd 53 14 c5 be fb dd dd be
       0.91111577 -0.08252449 -0.3849207 -0.4333342
0000a0 33 83 06 3e ec b8 1d be 34 12 6f bf 26 6e 1d 3e
       0.13135986 -0.15402573 -0.9338715 0.1537405
0000b0 3e 3a b1 3e 87 bb e5 bd 89 ce e4 be db 41 4b be
       0.34614748 -0.112174086 -0.44688824 -0.1984934
0000c0 cc 02 4a be 11 89 bd bc cf 52 99 bb 90 03 b6 bc
       -0.1972763 -0.023136647 -0.004679061 -0.022218496
0000d0 e8 bb aa 3e 14 54 2a 3d 5b 32 19 3d 45 06 bf 3d
       0.33346486 0.04158409 0.03740154 0.09327368
0000e0 53 5c a7 bd 11 9d 94 bc 5e 47 ea bd 31 63 00 3e
       -0.08171906 -0.018141301 -0.114393935 0.12537839
0000f0 fc af c5 bd 2c d0 d4 bd 6b 95 ea bc f9 11 96 bb
       -0.09652707 -0.10391268 -0.028635701 -0.004579779
000100 38 b6 9f bb d3 b6 ba 3d 87 40 3b be e0 44 84 3c
       -0.004874017 0.09116902 -0.18286334 0.016146123
000110 50 f3 20 be 58 0a e5 3c 8f e7 97 bd ab 86 ec 3b
       -0.15717816 0.027959034 -0.07417213 0.007218202
000120 b7 6d e2 bd 99 81 fe bd e8 1a b0 3d 9e 2b 16 be
       -0.11056083 -0.124270625 0.08598882 -0.14665076
000130 4d 71 d0 3d bd e9 a0 3d 7d 3d 10 be ef df b4 ba
       0.101778604 0.07857082 -0.14085956 -0.0013799648
000140 4e cb 13 be ee 16 47 3d 5e 43 0e be d4 6b 1c be
       -0.14433023 0.04860585 -0.13892886 -0.15275508
000150 8f e8 f5 bd 90 f5 64 3d d7 7f d3 3d b1 a7 a7 3d
       -0.12007248 0.05589825 0.10327118 0.081862815
000160 19 e1 95 3c e6 b7 96 bd 7c dd 08 be 03 10 1e 3d
       0.018295811 -0.073592946 -0.1336574 0.03858949
000170 c4 5d d3 3d 4a 9e 8b 3d 96 66 4d bd b2 2f 9b 3c
       0.10320619 0.068173006 -0.05014666 0.018943641
000180 af 35 cd bc 0f e3 b9 bd d2 e8 cb bd 06 e4 52 bd
       -0.025050012 -0.09076511 -0.09956516 -0.05148699
000190 5a 83 66 3d d7 56 3e bd 30 14 e2 bd 15 c4 96 3d
       0.05627761 -0.046469536 -0.11039007 0.073616184
0001a0 42 6e 96 bb cb 12 fb bd 6b 56 bf bc b9 fb be 3c
       -0.0045907805 -0.12259444 -0.023356637 0.02331339
0001b0 54 48 cf bc 51 ee 5b be 58 6a 8e be 79 69 4f be
       -0.025303043 -0.21477629 -0.2781551 -0.20255078
0001c0 ab 19 6c bc 14 c1 21 be 7e 46 96 3e 53 61 2b 3e
       -0.014410417 -0.1579631 0.29350656 0.16736345
0001d0 8d ab 5b 3e bd bd 0e 3f e8 11 90 3f b0 07 ca 3f
       0.2145216 0.5575827 1.1255465 1.5783596
0001e0 90 2b 41 be e8 02 d1 bd e9 9b 1e bd 90 bc 74 bf
       -0.18864274 -0.102056324 -0.038722906 -0.95600224
0001f0 ac 86 87 bf 88 ed 99 bf 17 23 6b 3d 5a 5c da 3c
       -1.0587974 -1.2025614 0.05740651 0.026655365
000200 4d 14 d0 3e 22 5d e2 3d df be 79 3e cb ab e9 3e
       0.40640488 0.1105292 0.24389218 0.4563888
000210 80 15 dc be 09 18 2a be a8 3c 86 bd 2e 2d 82 3d
       -0.42985153 -0.16610731 -0.06554538 0.063562736
000220 ae c2 9f 3e fd f1 23 3f 66 55 87 3e 28 77 e5 3d
       0.31203216 0.6404112 0.2643234 0.11204368
000230 b0 21 30 be 69 8b 9a be da 88 0a bf b8 52 20 bf
       -0.17200351 -0.30184487 -0.5411507 -0.6262622
000240 73 9a 15 bc 48 87 28 bf 82 67 db be 4f 59 7d bd
       -0.009131062 -0.6583142 -0.42852408 -0.06185275
000250 36 ef 03 be a8 56 15 be 14 32 43 be d9 52 37 3e
       -0.1288422 -0.14583838 -0.19062072 0.17902698
000260 88 ca 90 3b 25 4d 04 3e 6a ca 6d bd 50 05 11 3e
       0.004418675 0.12920053 -0.058054365 0.14162183
000270 fb fb 33 be 0f e8 2c 3e ce 1d f2 3d 80 31 56 be
       -0.17576592 0.16885398 0.11822091 -0.2091732
000280 73 7d 59 be 36 be 86 be c0 6d d2 3e 3e 0f e8 bd
       -0.21239261 -0.26316994 0.41099358 -0.11331032
000290 50 3e 4e be 9e e1 96 3e 3f 1e 9b be 77 f4 37 3e
       -0.20140958 0.29469007 -0.30296513 0.1796435
0002a0 dd 49 c6 bd 43 4c a9 be b0 a7 04 3e bf bd 0a bf
       -0.09682057 -0.33065996 0.12954593 -0.5419578
0002b0 06 f6 13 3f f0 31 a2 bc 63 4f b4 be 3b 4a d7 3e
       0.57797277 -0.019799203 -0.35216817 0.4204882
0002c0 ec 29 8e be 6d f4 4c be cf 08 ce 3d ee 90 d8 be
       -0.2776636 -0.20015116 0.10060274 -0.42298073
0002d0 3c 4d 4f be d1 28 33 be 8f 83 33 3e 5e 00 87 be
       -0.20244306 -0.17496039 0.17530654 -0.26367468
0002e0 b9 bb 3e 3d 0a e3 69 3c c3 93 32 be 8b 26 ba 3e
       0.046565745 0.014275322 -0.17439179 0.3635753
0002f0 46 44 9c 3c 77 74 06 bf bf ad 37 3f 8e 1b 25 be
       0.019075524 -0.5252146 0.7174949 -0.16123793
000300 29 2d c1 be 7d 16 25 3f a0 82 c2 be 92 23 07 be
       -0.37729767 0.6448744 -0.37990284 -0.13197163
000310 a2 c2 45 3e ca 08 1b bf 93 52 a1 3e d8 0f 4a be
       0.19312528 -0.60560286 0.31508312 -0.19732606
000320 a2 56 83 3e 3b 8f 4f 3e b6 53 db bd 76 2b 9f 3e
       0.25652033 0.20269482 -0.10709326 0.31087846
000330 b0 c5 b4 bd 95 ef 6f be 67 0b 49 3d 0c c5 48 3e
       -0.088267684 -0.23431237 0.04908314 0.19606417
000340 a0 c9 30 bd 9b f2 e7 3e 1c c4 50 be 4e 3a ca bd
       -0.043161035 0.4530228 -0.2038731 -0.09874402
000350 b7 25 c2 3e 6c 4e 06 bf b2 06 1f 3d 0b 2d b1 bc
       0.379194 -0.5246341 0.038824745 -0.021627923
000360 3d e9 e0 be 68 7c d3 be dc df 6c be 50 7e 32 be
       -0.43927947 -0.41305852 -0.2313227 -0.17430997
000370 80 7c a7 bd 2d 2c bc 3e 48 84 e0 bd 0d 64 cf 3e
       -0.08178043 0.36752453 -0.10962731 0.4050602
000380 ed 46 a1 3e 37 b1 58 3f 21 d1 ff 3e 86 c9 4d bf
       0.31499425 0.8464541 0.4996424 -0.80385625
000390 72 a0 95 3e 67 a9 4c bd 00 42 30 be 2a 03 70 bf
       0.29223973 -0.049966242 -0.17212677 -0.9375483
0003a0 40 97 3d bf d4 6d 98 3e 7d e6 c3 3d 1d 29 86 3e
       -0.74058914 0.29771292 0.095654465 0.26203242
0003b0 db 50 9b bd 93 90 bc bd 00 5e 32 be a6 d9 8f be
       -0.07583781 -0.09207263 -0.1741867 -0.2809574
0003c0 7f 44 c2 bc fd 84 7e be 04 a5 b7 bd dc 03 e6 bd
       -0.023714302 -0.24855419 -0.08967021 -0.11231205
0003d0 7a 6e 49 3e 10 db ec be 50 6c 81 3d f9 4d ab be
       0.1967105 -0.4626088 0.06319487 -0.33457926
0003e0 b5 19 9c 3c 06 b2 bb be ca e8 8a be 27 04 ef 3e
       0.019055227 -0.3665926 -0.2713073 0.46682855
0003f0 87 13 f4 be 86 bb b0 bd 8f 37 f3 3e 75 b4 0e be
       -0.47671148 -0.08629517 0.47503325 -0.13936026

conv3.bias f4 [16]
000000 1e 5a 99 3b 3b 2d 19 be 87 d6 ea bd 50 f3 8e be
       0.0046799323 -0.1495866 -0.11466699 -0.27920008
000010 83 47 6a bf 45 d8 47 3e 84 c3 89 3b c3 4a 38 be
       -0.9151537 0.19516094 0.0042042155 -0.1799727
000020 1f a6 d4 bc 58 e6 b3 bd 27 c2 8a bd a7 54 b0 be
       -0.025958119 -0.08784169 -0.06775313 -0.34439585
000030 01 af ad bd 78 6c 7f be 8d 86 8c bd 81 46 54 be
       -0.08480645 -0.24943721 -0.06861601 -0.2073002

fc1.weight f4 [120, 400]
000000 8a f7 66 3d 7f e6 fa 3c 78 a8 61 39 e2 c4 2f bc
       0.056388415 0.030627487 0.00021520432 -0.010728093
000010 8d 1c 79 3d 74 4c 63 bd ef 41 a8 3d ca 3b cd 3c
       0.060818244 -0.055492833 0.08215701 0.025052924
000020 37 7e 4d bd 21 af 84 bc 9e c6 f3 3c 5d 6e fe 3d
       -0.050169196 -0.01619679 0.029757794 0.12423394
000030 d9 3a d2 3c 28 94 ce 3c b0 6b a2 3c c7 6e 6c 3c
       0.025662826 0.02521713 0.01982674 0.014430708
000040 48 53 f5 3c 2f 8b bd 3b 13 6a 92 3d 24 18 c3 bb
       0.029946938 0.0057844142 0.07149138 -0.0059538055
000050 ff e3 5c 3c 1d 2b 30 3d 29 d6 0e 3a 4d 8b 0d 3d
       0.013482093 0.043009866 0.00054487825 0.034556676
000060 ec e5 aa bc 80 0e f1 3c 46 2e 9d bc d9 f9 2f bd
       -0.020861588 0.02942586 -0.019187104 -0.042962883
000070 38 45 6c bc b6 d6 17 3c 72 20 45 3b 33 df e0 bb
       -0.0144208 0.0092675 0.0030079153 -0.006862545
000080 54 37 45 bd 11 f4 bd bc 05 5a 2a 3c f1 22 ef 3c
       -0.048148468 -0.023187669 0.010397439 0.029191466
000090 18 a2 47 3d de 39 d8 3b e1 f8 37 bd 2a 38 37 3d
       0.04873857 0.006598695 -0.044915084 0.044731297
0000a0 0e 91 13 bd b5 80 62 3b d9 06 17 bd e3 02 51 3d
       -0.036027007 0.0034561579 -0.036871765 0.051028144
0000b0 26 63 98 3b 9d d1 2c bd 66 ce 7b 3c e5 1b 83 3b
       0.0046504913 -0.04219209 0.015369033 0.004001128
0000c0 82 1c 95 bc b6 92 8a 3c e8 cb a7 bd 31 65 a6 bd
       -0.01820207 0.01691566 -0.08193189 -0.081247695
0000d0 47 58 97 3b de 05 b0 bd 83 4e 1a bd 18 e4 ac 3d
       0.004618678 -0.08594869 -0.03767253 0.08441943
0000e0 f1 17 91 3d f3 76 93 bd 22 3d 24 bd 37 60 fe 3d
       0.070846446 -0.07200422 -0.040097363 0.12420695
0000f0 f9 8c 4a bd 7e eb 51 3d 4e cc 82 3d f3 f5 87 3d
       -0.04945085 0.051249973 0.06386624 0.06638708
000100 f4 0d 16 3e 94 8d d0 3c 46 0f 0a bd 4f 34 98 bd
       0.1465376 0.025458135 -0.033705972 -0.07431852
000110 78 af 7b bc 01 76 48 bd d8 84 ef 3d 72 96 65 3d
       -0.015361659 -0.048940662 0.1169526 0.05605168
000120 82 5e ad bd 89 36 f5 bc c7 f8 7b 3c fc 85 db 3c
       -0.084652916 -0.029933231 0.015379137 0.026797287
000130 ca 41 2e bd 7b 58 96 bd ce 4a 83 bd 37 37 2f 3c
       -0.04254321 -0.07341095 -0.06410752 0.010694317
000140 3f bd a6 3d 5d 90 8f 3d 2e 64 6f 3d 3d d7 d7 3c
       0.081415646 0.07009957 0.05844515 0.02634775
000150 6e a1 97 3c b9 b6 5c 3d e6 c2 95 3d d1 ec 30 bd
       0.018509593 0.053885195 0.073125646 -0.043194596
000160 f4 37 7e bd d1 0e 45 3d 97 13 53 bd 43 de a2 3d
       -0.06206508 0.048109833 -0.051532354 0.07952549
000170 e2 41 4d bc ad 74 61 3d d0 58 f9 3d e8 2f 04 bc
       -0.012527915 0.05504291 0.12175143 -0.008068062
000180 7d a2 3f bb 2f eb ad bd e3 36 b2 3b 51 87 b1 3d
       -0.0029241138 -0.08492123 0.005438672 0.08668388
000190 67 9d 41 3d 40 a9 b3 bd 5c c2 7c bd 1b 15 48 bd
       0.04726925 -0.08772516 -0.061708793 -0.048848253
0001a0 57 ea 25 bc 8b 84 17 bc d5 9f 31 bd 9a d2 54 3c
       -0.010126672 -0.009247909 -0.04336532 0.012989664
0001b0 61 01 ca bd 79 8b 4b bc 8e 3e 87 bd e0 f7 08 bc
       -0.09863544 -0.01242339 -0.06603728 -0.008359879
0001c0 98 86 12 3d b8 8b a3 bd b4 ac cb 3b d0 58 c9 bd
       0.03577289 -0.079856336 0.006215656 -0.09831393
0001d0 01 3f 92 bd 66 4f 32 bd 1a 45 08 be f3 fb ca bd
       -0.07140923 -0.04353275 -0.1330761 -0.09911337
0001e0 1c 68 db bd 0d 19 90 bd fe d7 0a be 9e 90 97 bd
       -0.10713217 -0.07036028 -0.13558957 -0.074006304
0001f0 4d 1a 0c be 0a dd a4 3d 4a 85 35 3e f0 7f ba 3c
       -0.13681908 0.08049972 0.17726627 0.022766083
000200 17 94 86 3e c6 0a 45 3c f9 dd b0 3d f5 a3 3d 3e
       0.2628486 0.012026494 0.08636088 0.18519576
000210 b0 15 96 3d df d7 08 3e f3 1c f1 bc e4 15 d8 3c
       0.07328355 0.13363598 -0.02943275 0.026377626
000220 5f 4c 31 3e cf f7 31 3e c9 e0 47 3e 83 d6 22 3c
       0.1731429 0.17379688 0.19519342 0.009938839
000230 10 ce 64 3c dc e3 07 3e ca b6 a9 3d 88 d2 3c bd
       0.013965145 0.13270515 0.08286817 -0.046099216
000240 8c 77 0d bd ff 1d ee 3d af 59 0d 3e d8 2b 5e 3d
       -0.034537837 0.11626815 0.13803743 0.05424103
000250 36 8c 6c bd 22 ca 75 bd 62 8a 17 3c f5 6c e8 bc
       -0.057750903 -0.060007222 0.009249302 -0.028372267
000260 6b 25 54 bd 71 76 28 3d 7a f7 d5 bc c1 e1 57 bb
       -0.051793497 0.04112858 -0.026118983 -0.0032940956
000270 cc 0a 29 bd 7f f1 62 3a 86 14 20 bc f8 f6 34 3d
       -0.041270062 0.00086572015 -0.009770518 0.04418084
000280 3e d0 a9 bc 5f 30 e6 3c a6 36 ca bc 7f 79 30 bd
       -0.02072918 0.028099237 -0.024684262 -0.043084618
000290 03 ee f0 3c 71 b7 e3 3c 45 65 d5 bc 5f d6 1b bd
       0.029410368 0.027797433 -0.026049266 -0.038046237
0002a0 cd 64 3d bd 15 e1 1b bd 3f c5 49 bb 57 3a c8 bc
       -0.04623871 -0.03805645 -0.0030787734 -0.024441881
0002b0 93 ef 27 3d 2a f1 1e bd a6 1b f3 bc 80 bb 93 bd
       0.04099996 -0.03880421 -0.02967627 -0.07213497
0002c0 b0 18 8d 3b 60 f2 3e bd d7 53 4e bd 1a 8f 11 3e
       0.0043059215 -0.046617866 -0.050372925 0.14214745
0002d0 1e b5 0b bd 29 59 26 3c 53 ff 5f 3b de 15 75 bd
       -0.034108274 0.010153093 0.0034179285 -0.059835307
0002e0 2c 24 ea 3d dd f2 ca bb f2 cc 26 3d ba d8 99 bc
       0.114326805 -0.0061935023 0.040722795 -0.018780101
0002f0 9e d0 b3 3c 24 20 fb 3c 91 c8 e9 bc 78 55 31 3c
       0.021950062 0.030654974 -0.02853802 0.0108236
000300 1f e4 7a 3c f5 bd d7 bc c5 c3 13 bd 89 73 27 3d
       0.015313177 -0.026335696 -0.036075372 0.040881667
000310 46 25 01 3d 78 9b 76 3d 8b 53 8f 3d c6 aa d2 3a
       0.031529687 0.06020686 0.069983564 0.0016072623
000320 6c 63 31 3c 6d 15 ed bc d8 cd aa bc 83 1b 84 3c
       0.010826927 -0.02894088 -0.020850107 0.0161264
000330 33 1e 61 3c ac a1 ab bc 7d 43 d3 bc 58 12 06 3d
       0.01374011 -0.020951115 -0.025789017 0.032732338
000340 09 ed fd bc d0 42 5d bd d7 58 bc bb 4f 67 31 3c
       -0.030996816 -0.054018795 -0.005747895 0.010827853
000350 53 07 62 bd 08 83 3f bb f4 9a eb bc 3d e9 37 bd
       -0.055182766 -0.0029222388 -0.02876041 -0.044900168
000360 1c ec 26 3b ce 82 78 bc bf 7b e7 3c 0c 22 4a bd
       0.0025470322 -0.015167905 0.028257249 -0.049348876
000370 54 c1 fb 3b 48 c5 d4 3b 14 be fd bc 9f fb 38 3c
       0.0076829586 0.0064932443 -0.030974425 0.01129046
000380 9a 7c 6d bd 1f 5d d0 3c fa 7d 33 3d 3c 6a bc 3c
       -0.057980157 0.025435029 0.043821312 0.022999875
000390 6c fb 43 bb d8 f2 39 bd 8a 46 0a bd f8 97 a3 bc
       -0.0029904498 -0.04539761 -0.033758678 -0.019969925
0003a0 95 9f 0f bd 97 7b 5f bc d4 ec d9 3c b7 e4 87 3c
       -0.0350643 -0.013640306 0.026602186 0.016588552
0003b0 66 c2 f8 bb f9 0e fb 3c 7e 26 07 bd 14 37 03 bc
       -0.0075915335 0.030646788 -0.032995693 -0.008008737
0003c0 1c 81 21 3d e9 55 30 bd d0 fc 25 bd 8a a3 33 3d
       0.03942977 -0.04305068 -0.040524304 0.043857135
0003d0 05 f7 eb 3c 29 8f 9e 3c 94 29 40 bd 5a d8 79 3c
       0.028804312 0.019355373 -0.046914652 0.015249336
0003e0 2d ca 43 3d fd ba c1 3a d7 a7 41 bd 68 09 17 3d
       0.04780023 0.0014780458 -0.047279205 0.036874205
0003f0 de 6d ff bc 31 2f 08 3d b1 31 e1 3c ed 89 4b bd
       -0.031180318 0.03324813 0.027489515 -0.049692083

fc1.bias f4 [120]
000000 7c a8 7f 3c 86 a4 24 bd a4 42 3e bc f6 5d f6 3d
       0.015604135 -0.040195964 -0.011612568 0.120296404
000010 1b ac 8e 3c ed a7 42 bc 92 4e c6 3d f3 96 8f bc
       0.01741605 -0.011880857 0.09682955 -0.017528033
000020 06 fc 0d bd 52 47 bc 3d 07 05 0d 3d b5 e1 a3 ba
       -0.034664176 0.09193291 0.034428623 -0.0012503179
000030 fc df 05 3d c0 1d f7 3c f1 ef d8 bc 2e b0 1f 3c
       0.03268431 0.030165553 -0.0264816 0.009746594
000040 a6 6c 0a bd 93 59 a1 bd 2b 33 39 38 14 ae a7 bc
       -0.03379502 -0.07878413 4.415509e-05 -0.02046875
000050 2e 33 c7 3d 98 90 b1 3d b3 54 01 bd b8 b7 35 bd
       0.097265586 0.08670157 -0.031574916 -0.04436466
000060 60 21 e3 3d fd c3 41 bd d6 30 9d bd 19 86 9b 3c
       0.1109035 -0.04730605 -0.0767533 0.018984841
000070 dc f0 cc 3d eb 01 5b bc 6a 06 f3 bc d9 14 50 bd
       0.10006878 -0.0133671565 -0.029666144 -0.050801132
000080 99 36 fb 3c 0a 8e eb bc a1 9f c8 b7 56 76 06 3b
       0.030665683 -0.028754253 -2.3916191e-05 0.002051731
000090 2a 3f 9c 3c d1 ab de 3c aa 5b c0 bb a0 ff 0d bd
       0.019073088 0.027181538 -0.005870302 -0.03466761
0000a0 29 8e 43 3d 9d ed 0e bc ad 31 4f bc c6 aa f2 3c
       0.047742996 -0.008723644 -0.012646121 0.029622447
0000b0 97 57 13 bc 3b 48 16 bd 39 25 21 3c 11 8d 58 bc
       -0.008993051 -0.036689978 0.009835535 -0.013217227
0000c0 6a 06 e1 3d ea 1b 80 3d 51 24 9a bc e8 06 35 bd
       0.109875515 0.06255324 -0.018816145 -0.04419604
0000d0 fc bf 99 3c 75 9b 46 3c 17 75 46 bc f5 96 52 bd
       0.018768303 0.012122025 -0.012112877 -0.051413495
0000e0 1b fb 24 bc a0 ab f9 3c 30 80 d4 bb 49 6b a7 bd
       -0.010069634 0.030477345 -0.0064850077 -0.0817476
0000f0 e5 41 45 3d 3a cd 04 bc d4 c7 aa bc 09 7a 86 3d
       0.048158545 -0.00810557 -0.020847239 0.06566245
000100 01 d2 83 3d 65 bb c9 bc b1 0a 92 3c 3e 86 94 bd
       0.064365394 -0.02462549 0.017827364 -0.07252167
000110 c5 a9 63 bd 4c bf 05 bd 2e 97 0e 3b 22 08 bf bd
       -0.055581827 -0.032653138 0.002175759 -0.09327723
000120 85 d7 be bb aa b0 1d 3c ec 3e ac 3d 5e 52 2e bd
       -0.005824032 0.0096246395 0.08410439 -0.04255902
000130 fd fd 23 bd 54 94 da 3d cf 9a ca 3c 9a c0 eb 3d
       -0.040037144 0.106728226 0.024732022 0.11511345
000140 5a 75 17 3c fb 0b 3d 3c 82 5a 60 3d 0f 50 af bc
       0.009244287 0.011538501 0.054773815 -0.02140048
000150 54 7f 19 3d 5e 0b 02 be c0 b3 c7 ba 2b 96 7f bd
       0.037474945 -0.12699649 -0.0015236065 -0.06239907
000160 e4 48 12 3d 9f 7d fb 3b 2e e2 08 3e 6e 95 4a bd
       0.035714045 0.0076748873 0.1336753 -0.049458914
000170 ef 99 23 3d da 20 85 3c bd 69 11 bb ce 5d fb 3b
       0.039941724 0.016251016 -0.002218827 0.0076710945
000180 0e 90 82 3c 29 99 80 3d f8 f3 7e 3b 26 71 1a 3e
       0.015937831 0.06279213 0.003890274 0.15082225
000190 cb c2 2d 3d e8 28 b5 bd 4a a2 4a bd dd eb 9d 3d
       0.042422097 -0.08845693 -0.049471177 0.07711003
0001a0 98 f7 0d bc 9d 6c e6 bc 46 f4 99 bb ee cc 5a bc
       -0.008664988 -0.028127963 -0.004698309 -0.013354523
0001b0 44 78 b0 3d e5 89 6f 3d c2 0d ec 3d c6 ff 94 3d
       0.08616689 0.058481116 0.115260616 0.072753474
0001c0 fd 4e 11 3d e4 97 bc bd a0 f8 fc bd ba ba 6a 3d
       0.03547572 -0.09208658 -0.12352109 0.057306983
0001d0 33 d2 81 3d 87 fc 29 3e 50 1d 60 3d e6 88 2c bd
       0.063389204 0.16600238 0.054715455 -0.042122744

fc2.weight f4 [48, 120]
000000 ec b8 fb bc c0 32 79 bd 7d d2 3d bd eb d1 01 3d
       -0.030727826 -0.060839415 -0.046343315 0.031694334
000010 57 e4 91 bd 8a 12 77 bd f9 44 1e be c0 83 e5 bd
       -0.071236305 -0.060320415 -0.15455998 -0.1120677
000020 d6 44 c4 3c ec c2 70 3d a1 db f1 3d 2d 65 ca bd
       0.023958605 0.058779642 0.11809469 -0.09882579
000030 9c 6c 5f be 0b 79 11 3d c1 fa f4 3d 2a 66 98 3d
       -0.21818775 0.035515826 0.1196189 0.07441361
000040 f1 6a 97 3d 17 16 4d 3d 8c 1b be 3d fa 6b 99 be
       0.07393444 0.050069895 0.09282598 -0.29965192
000050 17 b4 3f be 79 2e 51 bd 47 55 81 3e ac 36 8e bd
       -0.18721043 -0.05106971 0.25260374 -0.069440216
000060 60 c6 31 3e 80 6f 07 3d 1c 44 04 3d 2d a5 4d 3c
       0.1736083 0.03306532 0.032291517 0.012551588
000070 1d 6f 4f bb a7 5d f7 3d 17 4e 59 3d 87 11 86 3d
       -0.0031651922 0.1207841 0.053052988 0.06546312
000080 6d 68 67 bd 16 e1 51 bd b8 3e 8f 3e 07 3e b5 bd
       -0.056496073 -0.05124005 0.27977538 -0.088497214
000090 0e 62 25 be f3 f8 18 bd ff f7 5e bd 98 fd 27 bd
       -0.16150686 -0.03734679 -0.054435726 -0.04101333
0000a0 ca 4e 18 3e 56 92 52 be 42 24 a9 3e 1a 82 3f 3c
       0.14873806 -0.20563635 0.33035475 0.0116887335
0000b0 d8 28 7d 3d 9c 6c 07 be 52 b1 ab 3d 88 f8 4b 3d
       0.06180653 -0.13225025 0.083834305 0.049797565
0000c0 71 20 0a 3d 18 37 10 be eb 88 c5 be 6b cf 55 bd
       0.033722345 -0.14083517 -0.38581023 -0.052199762
0000d0 a9 34 06 bd 66 f2 b2 be 3c 3e 15 be e0 0a 4a bc
       -0.032765064 -0.3495056 -0.14574522 -0.012331694
0000e0 99 ce 20 be a6 70 8f 3e 28 e3 8b 3d fa fb 1e 3e
       -0.15703811 0.2801563 0.06830436 0.15525809
0000f0 70 ae 7a 3e 1e 37 48 3d 62 87 da bd cd 8b 4d 3b
       0.24480605 0.04888069 -0.106703535 0.0031363845
000100 13 c0 fe 3d 24 e4 85 bc a2 73 84 be 25 90 83 bd
       0.12438979 -0.016344137 -0.2586947 -0.06423978
000110 48 c1 fd bc 46 58 51 bd c5 52 f5 3c e6 34 16 bd
       -0.030975953 -0.051109575 0.029946694 -0.03667154
000120 98 a8 53 be 18 94 07 3e 86 75 44 be 18 9a 3c 3e
       -0.20669782 0.13240087 -0.19185457 0.18418157
000130 ed 57 64 be ca 2b 03 bd 77 4a 01 3e 59 49 c3 3d
       -0.22299166 -0.032024182 0.12626062 0.09535474
000140 44 c7 59 3c 73 f8 14 3e b1 47 84 bd 5b a5 c8 bd
       0.0132921375 0.14547901 -0.064589866 -0.09797164
000150 bf e2 12 be 9b 31 17 be 54 5b 1d be be 73 29 3d
       -0.1434431 -0.14765017 -0.1536687 0.041370146
000160 d9 fd 23 be cb 5d ac 3d 11 78 d3 bd ae 26 14 3e
       -0.16014804 0.08416327 -0.10325635 0.1446788
000170 e6 2a 96 be 55 0c 31 be 91 58 be bd 78 98 93 bd
       -0.29329604 -0.1728986 -0.092942365 -0.072068155
000180 22 c4 1f be 08 2d 27 3b d6 cd 9f bd 2c ef 2b be
       -0.15602162 0.0025509018 -0.07802932 -0.16790456
000190 bf 04 04 3e 69 61 18 bd 94 54 93 3d 93 d6 80 3d
       0.12892435 -0.037202273 0.07193866 0.06290927
0001a0 97 37 89 bd ea 02 6e bd 27 95 7b bb a0 6b 00 3e
       -0.06700056 -0.058108248 -0.0038388462 0.12541056
0001b0 e2 2b 3e 3d 70 d2 13 bd 1d a1 26 3e e7 a5 32 3c
       0.04642857 -0.03608936 0.16272397 0.010903812
0001c0 e1 1d 1b be 5c bc 81 be 4b e8 15 be a5 2b 0e 3e
       -0.15148117 -0.2533902 -0.14639394 0.13883837
0001d0 6e 8c 13 be 74 da e0 3b 35 7e b6 3e cb 37 85 3c
       -0.14409038 0.006861979 0.35643163 0.016261956
0001e0 71 84 57 3e 74 2d 0b 3e a5 c2 fa 3c 01 5e b2 be
       0.21046616 0.13591558 0.030610392 -0.34837344
0001f0 9f 15 08 be 12 3e cb bd e2 25 e5 bd 62 7d 30 be
       -0.13289498 -0.09923948 -0.11188866 -0.1723533
000200 74 68 4b 3d 46 44 70 be 70 4d e0 bd e1 01 b1 3d
       0.04966016 -0.23463544 -0.1095227 0.086429365
000210 b4 58 6c 3e 84 4b ff 3c 4c a0 8f 3d cc 92 89 3d
       0.23080713 0.031163938 0.07012996 0.067174524
000220 14 a6 51 3d 4c 53 28 bd 9f 1b bb bd 15 ab 8e 3e
       0.051183775 -0.041095063 -0.09136128 0.278649
000230 d9 c0 1b bd 02 e4 19 bd 57 cb 9d 3e 66 44 72 3d
       -0.03802571 -0.03757096 0.30819198 0.05914726
000240 9e d8 cc bd d5 6a 6e be cf 1f 06 3d 0c ec c4 bc
       -0.10002254 -0.2328294 0.03274518 -0.024038337
000250 b0 71 0d 3d 94 7e 7d be 12 51 a1 be 01 3c d3 3d
       0.03453225 -0.24755317 -0.31507164 0.10314179
000260 26 05 97 bd e0 ba 2a 3c ba 69 92 be 6e 5d 05 3d
       -0.07374029 0.010420531 -0.28596288 0.032559805
000270 ca 06 2e 3d 9e 85 2f 3e c7 22 88 3e 8d d4 3d 3d
       0.042486943 0.17140815 0.26589033 0.046345282
000280 3d 9c 17 bd 99 3e 1a bc 75 ca 1f 3e 5e c4 2a bd
       -0.037014235 -0.0094143385 0.15604575 -0.041691177
000290 03 a0 b0 bc 90 c6 75 3e 38 d3 92 be 8f 1d 6b 3d
       -0.021560675 0.24001527 -0.28676772 0.057401236
0002a0 88 28 f7 bd 9c 9d 3a be 3f ae 31 3c fa 14 ab 3b
       -0.120682776 -0.18224186 0.010844766 0.0052210065
0002b0 2f 21 ff bd bb f9 0b 3e a4 3c 16 be 3e 5d 9f ba
       -0.12457501 0.13669483 -0.1467157 -0.0012158526
0002c0 39 d4 a8 bd 37 80 be 3d e4 4d 98 be 09 71 49 bd
       -0.08243603 0.09301799 -0.29746926 -0.049180064
0002d0 41 f0 23 be 36 69 18 3e 54 a1 b9 3d dd 86 87 be
       -0.16009618 0.14883885 0.09063974 -0.2647008
0002e0 e6 39 34 be fe 8e 95 bb 24 be 92 3d 8e 4c 5d bd
       -0.17600212 -0.004564165 0.07165173 -0.054028086
0002f0 4a 98 7b 3d 8e 1b 2c be 93 70 18 bd 02 d0 e7 bc
       0.06142453 -0.16807386 -0.037216734 -0.028297428
000300 75 ac e0 bd a4 80 eb 3d ce 66 51 3d 60 5c 60 3e
       -0.109703936 0.114991456 0.051123433 0.21910238
000310 61 67 56 3e 23 cb dc 3d 4f 1f 91 bd 97 ba 63 be
       0.20937873 0.10780933 -0.0708605 -0.22239147
000320 58 84 2b be c2 55 8c 3d f2 df 1e 3e ce fd a4 bd
       -0.16749704 0.068522945 0.15515116 -0.08056222
000330 79 b8 11 be 85 f8 a5 3e 7a 43 29 be 64 d1 a4 be
       -0.14230527 0.32416168 -0.16529647 -0.32191002
000340 9f 3c 47 be 5e 66 9e 3d 51 7a cd 3d 97 f7 99 bc
       -0.19456719 0.07734369 0.10033096 -0.018794818
000350 cf 21 62 3e 63 3f 87 bb 3e 11 30 3e 7e ec 93 bd
       0.2208321 -0.0041274293 0.17194077 -0.07222842
000360 b9 97 69 bc 54 27 a9 bd a7 2b a3 3d 8d 6f 0c 3e
       -0.014257365 -0.08259454 0.079673104 0.13714428
000370 9c 97 92 be d0 91 48 3e 8c 98 e5 3c 03 37 be bc
       -0.28631294 0.19586873 0.028026842 -0.023219591
000380 9d 37 9e 3c 22 23 73 be 6e 84 2f 3e 3d bf 00 be
       0.019313628 -0.23743871 0.17140362 -0.12572952
000390 4d 5c 83 be 0f 42 1f bc 23 99 a1 be 0f b7 ec 3d
       -0.25656357 -0.009720339 -0.31562147 0.11558353
0003a0 63 a9 a7 3e 6b d0 0b 3e d1 d4 9d 3e b3 7c 22 3e
       0.3274642 0.13653724 0.3082643 0.15867881
0003b0 93 86 95 3e 23 f1 c8 3e fc 3b c5 bd 87 00 48 bd
       0.29204234 0.39246473 -0.09630582 -0.048828628
0003c0 e0 b4 a0 bd a0 ea 7f bd 1b 80 84 3d 7c b4 a4 3d
       -0.07846999 -0.062479615 0.06469747 0.08042237
0003d0 36 7d 0b bd 22 3b 97 3c 71 be 81 3d d8 b9 95 bd
       -0.034054957 0.018460814 0.06335152 -0.073108375
0003e0 72 9c 1c bd ca f7 88 3d af f5 b0 bc fc 52 c1 3c
       -0.038235135 0.06687887 -0.021601526 0.02359914
0003f0 c9 00 9c bd 78 d0 46 bc 3b 5b f3 3b 34 47 0b 3c
       -0.07617337 -0.012134664 0.007426647 0.008500863

fc2.bias f4 [48]
000000 20 45 2d 3d d4 b1 1a 3e fe fd 8b bc 7d 24 c7 bd
       0.04230225 0.15106899 -0.017088886 -0.097237565
000010 34 b5 0d 3d f4 ee d2 3d f8 ad 0c 3e 02 19 d0 3d
       0.034596637 0.10299483 0.13738239 0.1016102
000020 c9 7c da 3d 1e 61 1c bd 23 07 0c 3e 6f ca 7c 3e
       0.10668332 -0.038178556 0.13674597 0.24686597
000030 44 98 98 3c d2 c8 4f be 60 22 88 3c 51 96 11 3e
       0.018627293 -0.2029145 0.016617954 0.14217497
000040 fe 82 8e 3d 10 1c df 39 88 a5 01 be 19 e8 7a 3d
       0.069585785 0.00042554783 -0.12660801 0.0612565
000050 cd c8 1d bd a8 72 a7 3c 81 44 30 3e de ba e5 3d
       -0.038521577 0.020440415 0.17213632 0.11217283
000060 e6 c4 21 3e 14 67 08 3c 06 fd 67 bc 9e 12 c2 bd
       0.15797767 0.008325357 -0.014159447 -0.09476207
000070 99 c6 5a b9 6c c8 50 3e ce 7b 33 bd 7f 80 3c bd
       -0.00020864083 0.20388955 -0.04381924 -0.04602098
000080 60 d0 6c bc 28 83 f3 bd 18 e5 56 3e d2 21 c0 bd
       -0.014453977 -0.118902504 0.2098583 -0.09381451
000090 11 67 38 bc 4e 3c 1d 3c d7 b2 3b 3e cd f3 41 bd
       -0.011255042 0.009596897 0.1832994 -0.047351647
0000a0 c1 13 99 3d 22 47 7e bd e9 09 ec bd fc 4b 3b 3e
       0.07474471 -0.062079556 -0.11525328 0.18290704
0000b0 4c b5 c6 3b cd ca ed 3d 3c 4a ab 3e d9 11 4a 3e
       0.0060640927 0.11610947 0.33455074 0.19733371

fc3.weight f4 [24, 48]
000000 71 1a 0b be 60 64 ee 3e 38 ee a7 bd a7 17 63 3d
       -0.13584305 0.46560955 -0.081997335 0.05544248
000010 23 d1 83 3e a4 70 81 bd 5f 00 ff bd 4a 3c 68 be
       0.25745496 -0.063203126 -0.12451243 -0.22679248
000020 e4 c4 9e 3e b3 2e 35 be 03 1d be be 8f f0 f2 be
       0.3100959 -0.17693596 -0.3713151 -0.47449157
000030 65 57 3b bc 1a a3 85 3e 7f a7 9b bd 57 75 c3 3e
       -0.011434411 0.26101 -0.07600307 0.3817546
000040 55 32 a9 bd 08 4a 7c bd 1b 2b 39 3d dd bf 62 be
       -0.08261553 -0.06159404 0.045207124 -0.22143503
000050 8f fe 01 3d 8e 63 23 bd b3 d5 d5 bd c7 8a 92 bd
       0.031736907 -0.039889865 -0.104411505 -0.07155376
000060 a7 63 bb be d7 eb df 3d 0a 05 14 be 72 02 f0 3b
       -0.36599466 0.10933655 -0.14455047 0.0073245103
000070 fb 2c 1a be 75 d9 29 be 97 29 25 be 07 3d 3d bc
       -0.15056221 -0.1658686 -0.16129147 -0.011550195
000080 68 f4 d6 bd 47 15 95 3d 9f 54 be bd da 32 6f be
       -0.104958355 0.07279449 -0.09293484 -0.23359242
000090 2f 52 dc bd ad 53 0d 3d 83 66 66 3f f7 0d a1 bd
       -0.10757863 0.034503628 0.9000017 -0.07863992
0000a0 e4 f3 a0 3e ac 6a 7e be 7b ec 85 bd ea 7b d5 be
       0.31436074 -0.2484538 -0.06539246 -0.416961
0000b0 30 4d 37 be f8 70 99 3e 7e 45 c9 3c e8 a7 3c 3e
       -0.17900538 0.29969 0.02456927 0.18423426
0000c0 f3 5e 8b bc e4 fd 94 bd e0 b9 6b bd 70 27 0a be
       -0.017013049 -0.07274988 -0.05755031 -0.13491607
0000d0 06 d2 73 bd f3 70 ac 3d c1 00 de 3e 32 ac a3 bc
       -0.059526466 0.08419981 0.4335995 -0.01997957
0000e0 80 e1 85 3d c9 0e d4 3e 55 40 dc be 23 4a 27 3f
       0.06537151 0.4141753 -0.4301783 0.653475
0000f0 77 9a 17 be 2c 75 21 be ae 4e d1 bd f7 0c 8d be
       -0.14805017 -0.15767354 -0.10220085 -0.27548954
000100 b2 11 3f be 81 b4 3e bc a8 39 4b 3e b7 29 9a 3d
       -0.18659094 -0.011639715 0.19846213 0.07527488
000110 77 f8 0c be e8 13 3c be a3 3e 83 be fe db 2e be
       -0.13766657 -0.18366969 -0.25633726 -0.17076108
000120 52 3f 55 be 0f 40 00 bd 42 7d dc 3d ad 05 cd 3c
       -0.20824936 -0.03131109 0.107660785 0.02502712
000130 c5 fb f6 be 96 60 54 be f3 2f 9a be aa 09 da 3d
       -0.4823896 -0.2073997 -0.30114707 0.106463745
000140 3f 41 86 3d f6 77 a7 3d 5d 2d 51 bd fb 48 8b bd
       0.065554135 0.081771776 -0.051068652 -0.06801029
000150 c3 63 8e be 42 99 ba 3e a6 d6 0b be f6 d6 14 3d
       -0.27810487 0.3644505 -0.136561 0.036337815
000160 e2 ef e9 3e 85 5f 0e 3e cb ee 17 be 0d b1 01 3f
       0.4569083 0.13903625 -0.14837186 0.50660783
000170 e4 d9 09 bd bf 4f a5 3d b8 80 4e be b3 b4 da bd
       -0.033655062 0.08071851 -0.2016629 -0.10678997
000180 99 13 b0 3e 3c 92 eb be 28 7a a6 bd a9 07 19 3e
       0.34389952 -0.46010005 -0.08128768 0.14944328
000190 99 77 a9 3e 2d 4a 49 3e c3 5e 7d 3d 76 be a0 3e
       0.33099058 0.19657202 0.06185795 0.3139531
0001a0 7f 64 61 be 52 ca 21 be ff 7b a8 3e d6 48 70 bc
       -0.22010992 -0.15799835 0.32907102 -0.014665803
0001b0 11 db 2f 3d 62 f2 d6 3c fa a1 f0 bc 67 e1 46 be
       0.042933527 0.026238624 -0.029374111 -0.19421922
0001c0 90 0f 80 bc 23 5f 36 3d 7b d4 b8 bd 37 57 d0 3e
       -0.01563242 0.044524323 -0.090249024 0.4069154
0001d0 fa f4 a9 39 b8 1e 93 be 6a 4c 91 be 73 6e a1 bc
       0.00032416714 -0.28734374 -0.28378612 -0.019705987
0001e0 7c 99 f8 be fc 62 3c bd e8 05 8d be 82 48 01 be
       -0.485546 -0.045992836 -0.2754357 -0.12625316
0001f0 de 6f 7f be 9b 4e 01 3f 26 7d ac be 60 9a 91 3e
       -0.24945018 0.5051057 -0.3368923 0.2843809
000200 b9 e1 62 3d e7 a0 23 be de d5 82 be 3f 1e ce 3d
       0.055391047 -0.15979348 -0.25553793 0.10064363
000210 3e fc ed 3e 7e 85 3b 3d 4f 73 dd be 56 fd 57 3d
       0.46481508 0.045781605 -0.43252036 0.052731834
000220 45 3f dd 3e c3 b5 d7 bd 8d fd e3 3e b6 9f 33 be
       0.43212333 -0.10532715 0.4452938 -0.17541394
000230 bb 67 25 be bc ca 86 bd 79 ac c8 be b2 e6 af be
       -0.16152851 -0.06581637 -0.39194086 -0.34355694
000240 c1 c0 f8 3d 43 b1 97 be 5b 43 d1 3c de 2a 7d bd
       0.1214614 -0.29627427 0.025544813 -0.06180846
000250 30 85 9d bc bf 86 5f bd 38 e8 4e be a2 29 e9 b9
       -0.019228548 -0.054571863 -0.20205772 -0.00044472242
000260 9b c9 51 be cd 44 ea 3e 54 d8 48 be a0 dd 7e be
       -0.20487063 0.45755616 -0.19613773 -0.2488923
000270 6f c9 b8 bc 1a 78 24 be 7f 0a 23 be 50 24 38 be
       -0.022556989 -0.1606144 -0.15921973 -0.17982602
000280 84 d8 b2 3e 8b 62 ae bc f9 69 9f bd b4 03 49 3e
       0.34930813 -0.021287223 -0.077838846 0.19630319
000290 9f a5 86 be 43 b8 82 be 0c fb 93 bd 6b 35 01 3f
       -0.26298234 -0.25531206 -0.07225618 0.50472134
0002a0 22 bf c8 be 19 75 ab 3d c7 6a 44 3f da 89 81 3e
       -0.39208323 0.08371944 0.7672543 0.25300485
0002b0 e2 a1 82 3e 44 03 e9 bd 9d 1d 4d 3f 6c ac b3 3d
       0.25514132 -0.11377576 0.8012331 0.08773121
0002c0 b5 5f 29 be 88 69 0a be 37 f3 bd 3c 43 cf 62 be
       -0.16540416 -0.1351682 0.023187263 -0.22149377
0002d0 92 99 c2 be 62 02 ce 3d 5a 95 bb 3e eb 5f ec 3c
       -0.3800779 0.10059048 0.36637384 0.028854331
0002e0 61 5f b9 3e ba 73 d6 3d f6 2d 5e 3e eb bf 52 3d
       0.3620558 0.10471292 0.2169722 0.05145256
0002f0 35 43 28 3e 50 b0 96 bd 6d 72 07 3f f1 96 0c be
       0.16431887 -0.07357848 0.52908975 -0.13729455
000300 e3 ab 88 bd 31 cf cd 3e 21 85 fc bd e6 1b ad bd
       -0.0667341 0.40197137 -0.1233008 -0.08452587
000310 95 78 c7 3e 5a cc c0 3e f8 fa 2a bd c9 e6 83 be
       0.38959184 0.37655908 -0.04174325 -0.25762013
000320 49 8a de 3e 65 1f 81 bc 5f 4a d7 be 00 2e d7 bd
       0.43464878 -0.01576204 -0.42048928 -0.10506821
000330 e4 57 af 3d 59 93 97 bd 01 15 43 be b6 8e 61 3e
       0.08561686 -0.07401151 -0.19050981 0.22027096
000340 81 cd 9d be 71 e6 3a 3e 9a 42 0f be 18 f9 99 3e
       -0.3082085 0.18251969 -0.1399025 0.30072856
000350 b1 1c 3c be 8f 24 fb bc f4 fd 3b 3e d2 2a 49 bc
       -0.1837032 -0.030657081 0.18358594 -0.012278276
000360 a3 81 e2 bd a2 dc f6 bc 0c d4 81 bd a1 35 e9 3d
       -0.110598825 -0.030134503 -0.06339273 0.11387182
000370 69 6e 72 be a8 78 9a be a6 37 44 be 9f 5b 4b bd
       -0.2367493 -0.30170178 -0.19161853 -0.049647924
000380 0e 64 46 be 3d 00 d6 bd 63 19 86 bd 72 24 57 3e
       -0.19374105 -0.10449264 -0.06547811 0.21009997
000390 15 a1 6b be f9 fb fa 3e 22 68 94 bd f4 ab 0f be
       -0.23010667 0.49020365 -0.07246424 -0.14030439
0003a0 b3 8e 04 3f d6 45 87 be e7 aa 9f be 89 62 e2 bd
       0.5178024 -0.26420468 -0.31185076 -0.1105395
0003b0 2b cf cb 3d 18 db 75 bc f4 17 33 be 4e be 03 be
       0.099516235 -0.015005849 -0.17489606 -0.12865564
0003c0 af 00 6a be b6 16 76 bd 26 d2 07 bd 24 66 f0 3d
       -0.22851823 -0.060080253 -0.033159398 0.11738232
0003d0 6a c9 01 be 24 1e f5 be b1 2a 13 3e 4f 75 fc 3d
       -0.1267449 -0.47874558 0.14371754 0.12327062
0003e0 9c b1 d0 3d 65 c2 aa 3d 6f 0f 6c 3f bc 9b 96 3d
       0.10190126 0.08337859 0.9221105 0.07353923
0003f0 69 78 ba bd fd b2 71 be 46 ee c0 bd 95 df 22 3e
       -0.09104998 -0.23603435 -0.09420447 0.15905602

fc3.bias f4 [24]
000000 a2 e3 56 bd c4 64 dc 3d 96 e5 1d be 52 bb ef bc
       -0.05246318 0.10761407 -0.15419611 -0.029264126
000010 ce 74 8a bc 85 23 69 bd 0c af 39 bd 10 08 2d 3d
       -0.0169014 -0.05691864 -0.045332953 0.042244017
000020 1f 33 31 3e 25 b0 bd be 57 ac bc 3d 0d 6e 50 3d
       0.17304657 -0.3704845 0.09212559 0.050886203
000030 9c e8 7a 3e a4 f5 82 be c4 4b 7d 3e 4f df 90 be
       0.24502796 -0.25578034 0.24735934 -0.2829537
000040 97 be 46 be fb 6c 7d bd bf e5 ce 3d f1 c4 08 3e
       -0.19408642 -0.06187151 0.10102414 0.13356377
000050 4f 94 55 3d e8 36 78 3e eb 4b 57 be 16 b6 b8 b9
       0.05214339 0.24239695 -0.21025054 -0.0003523088
